cnn_model.compile(loss=keras.losses.categorical_crossentropy, 
                  optimizer=keras.optimizers.Adam(),
                  metrics=['accuracy'])
                      
_________________________________________________________________
Layer (type)                 Output Shape              Param #   
=================================================================
conv2d_1 (Conv2D)            (None, 20, 50, 128)       1280      
_________________________________________________________________
leaky_re_lu_1 (LeakyReLU)    (None, 20, 50, 128)       0         
_________________________________________________________________
max_pooling2d_1 (MaxPooling2 (None, 10, 25, 128)       0         
_________________________________________________________________
flatten_1 (Flatten)          (None, 32000)             0         
_________________________________________________________________
dense_1 (Dense)              (None, 300)               9600300   
_________________________________________________________________
leaky_re_lu_2 (LeakyReLU)    (None, 300)               0         
_________________________________________________________________
dropout_1 (Dropout)          (None, 300)               0         
_________________________________________________________________
dense_2 (Dense)              (None, 21)                6321      
=================================================================
Total params: 9,607,901
Trainable params: 9,607,901
Non-trainable params: 0
_________________________________________________________________
Train on 6800 samples, validate on 1700 samples
Epoch 1/50
6800/6800 [==============================] - 31s 5ms/step - loss: 3.2170 - acc: 0.2379 - val_loss: 2.9172 - val_acc: 0.3171
Epoch 2/50
…
6800/6800 [==============================] - 30s 4ms/step - loss: 0.9326 - acc: 0.9219 - val_loss: 1.3923 - val_acc: 0.8788
Epoch 49/50
6800/6800 [==============================] - 30s 4ms/step - loss: 0.9238 - acc: 0.9240 - val_loss: 1.4494 - val_acc: 0.8818
Epoch 50/50
6800/6800 [==============================] - 30s 4ms/step - loss: 0.9310 - acc: 0.9232 - val_loss: 1.4337 - val_acc: 0.8806
_________________________________________________________________
Layer (type)                 Output Shape              Param #   
=================================================================
conv2d_1 (Conv2D)            (None, 20, 50, 128)       1280      
_________________________________________________________________
leaky_re_lu_1 (LeakyReLU)    (None, 20, 50, 128)       0         
_________________________________________________________________
conv2d_2 (Conv2D)            (None, 20, 50, 128)       147584    
_________________________________________________________________
leaky_re_lu_2 (LeakyReLU)    (None, 20, 50, 128)       0         
_________________________________________________________________
max_pooling2d_1 (MaxPooling2 (None, 10, 25, 128)       0         
_________________________________________________________________
flatten_1 (Flatten)          (None, 32000)             0         
_________________________________________________________________
dense_1 (Dense)              (None, 300)               9600300   
_________________________________________________________________
leaky_re_lu_3 (LeakyReLU)    (None, 300)               0         
_________________________________________________________________
dropout_1 (Dropout)          (None, 300)               0         
_________________________________________________________________
dense_2 (Dense)              (None, 21)                6321      
=================================================================
Total params: 9,755,485
Trainable params: 9,755,485
Non-trainable params: 0
_________________________________________________________________
Train on 6800 samples, validate on 1700 samples
Epoch 1/50
6800/6800 [==============================] - 106s 16ms/step - loss: 2.5179 - acc: 0.2406 - val_loss: 2.1037 - val_acc: 0.3841
Epoch 2/50
…
6800/6800 [==============================] - 106s 16ms/step - loss: 0.0440 - acc: 0.9938 - val_loss: 0.7320 - val_acc: 0.9276
Epoch 49/50
6800/6800 [==============================] - 106s 16ms/step - loss: 0.0408 - acc: 0.9941 - val_loss: 0.7263 - val_acc: 0.9276
Epoch 50/50
6800/6800 [==============================] - 106s 16ms/step - loss: 0.0326 - acc: 0.9949 - val_loss: 0.7378 - val_acc: 0.9271
_________________________________________________________________
Layer (type)                 Output Shape              Param #   
=================================================================
conv2d_1 (Conv2D)            (None, 20, 50, 128)       1280      
_________________________________________________________________
leaky_re_lu_1 (LeakyReLU)    (None, 20, 50, 128)       0         
_________________________________________________________________
conv2d_2 (Conv2D)            (None, 20, 50, 128)       147584    
_________________________________________________________________
leaky_re_lu_2 (LeakyReLU)    (None, 20, 50, 128)       0         
_________________________________________________________________
conv2d_3 (Conv2D)            (None, 20, 50, 128)       147584    
_________________________________________________________________
leaky_re_lu_3 (LeakyReLU)    (None, 20, 50, 128)       0         
_________________________________________________________________
max_pooling2d_1 (MaxPooling2 (None, 10, 25, 128)       0         
_________________________________________________________________
flatten_1 (Flatten)          (None, 32000)             0         
_________________________________________________________________
dense_1 (Dense)              (None, 300)               9600300   
_________________________________________________________________
leaky_re_lu_4 (LeakyReLU)    (None, 300)               0         
_________________________________________________________________
dropout_1 (Dropout)          (None, 300)               0         
_________________________________________________________________
dense_2 (Dense)              (None, 21)                6321      
=================================================================
Total params: 9,903,069
Trainable params: 9,903,069
Non-trainable params: 0
_________________________________________________________________
Train on 6800 samples, validate on 1700 samples
Epoch 1/50
6800/6800 [==============================] - 182s 27ms/step - loss: 2.5236 - acc: 0.2299 - val_loss: 2.1410 - val_acc: 0.3553
Epoch 2/50
…
6800/6800 [==============================] - 184s 27ms/step - loss: 0.2004 - acc: 0.9779 - val_loss: 1.1286 - val_acc: 0.9106
Epoch 49/50
6800/6800 [==============================] - 183s 27ms/step - loss: 0.2843 - acc: 0.9726 - val_loss: 1.0858 - val_acc: 0.9118
Epoch 50/50
6800/6800 [==============================] - 183s 27ms/step - loss: 0.2080 - acc: 0.9750 - val_loss: 1.0289 - val_acc: 0.9088
_________________________________________________________________
Layer (type)                 Output Shape              Param #   
=================================================================
conv2d_1 (Conv2D)            (None, 20, 50, 128)       1280      
_________________________________________________________________
leaky_re_lu_1 (LeakyReLU)    (None, 20, 50, 128)       0         
_________________________________________________________________
conv2d_2 (Conv2D)            (None, 20, 50, 128)       147584    
_________________________________________________________________
leaky_re_lu_2 (LeakyReLU)    (None, 20, 50, 128)       0         
_________________________________________________________________
conv2d_3 (Conv2D)            (None, 20, 50, 128)       147584    
_________________________________________________________________
leaky_re_lu_3 (LeakyReLU)    (None, 20, 50, 128)       0         
_________________________________________________________________
conv2d_4 (Conv2D)            (None, 20, 50, 128)       147584    
_________________________________________________________________
leaky_re_lu_4 (LeakyReLU)    (None, 20, 50, 128)       0         
_________________________________________________________________
max_pooling2d_1 (MaxPooling2 (None, 10, 25, 128)       0         
_________________________________________________________________
flatten_1 (Flatten)          (None, 32000)             0         
_________________________________________________________________
dense_1 (Dense)              (None, 300)               9600300   
_________________________________________________________________
leaky_re_lu_5 (LeakyReLU)    (None, 300)               0         
_________________________________________________________________
dropout_1 (Dropout)          (None, 300)               0         
_________________________________________________________________
dense_2 (Dense)              (None, 21)                6321      
=================================================================
Total params: 10,050,653
Trainable params: 10,050,653
Non-trainable params: 0
_________________________________________________________________
Train on 6800 samples, validate on 1700 samples
Epoch 1/50
6800/6800 [==============================] - 261s 38ms/step - loss: 2.4213 - acc: 0.2484 - val_loss: 2.0387 - val_acc: 0.3865
…
6800/6800 [==============================] - 258s 38ms/step - loss: 0.5627 - acc: 0.9526 - val_loss: 1.3992 - val_acc: 0.9024
Epoch 49/50
6800/6800 [==============================] - 258s 38ms/step - loss: 0.6047 - acc: 0.9453 - val_loss: 1.5565 - val_acc: 0.8900
Epoch 50/50
6800/6800 [==============================] - 257s 38ms/step - loss: 0.7070 - acc: 0.9378 - val_loss: 1.5764 - val_acc: 0.8935
_________________________________________________________________
Layer (type)                 Output Shape              Param #   
=================================================================
conv2d_1 (Conv2D)            (None, 20, 50, 64)        640       
_________________________________________________________________
leaky_re_lu_1 (LeakyReLU)    (None, 20, 50, 64)        0         
_________________________________________________________________
max_pooling2d_1 (MaxPooling2 (None, 10, 25, 64)        0         
_________________________________________________________________
conv2d_2 (Conv2D)            (None, 10, 25, 128)       73856     
_________________________________________________________________
leaky_re_lu_2 (LeakyReLU)    (None, 10, 25, 128)       0         
_________________________________________________________________
max_pooling2d_2 (MaxPooling2 (None, 5, 13, 128)        0         
_________________________________________________________________
flatten_1 (Flatten)          (None, 8320)              0         
_________________________________________________________________
dense_1 (Dense)              (None, 300)               2496300   
_________________________________________________________________
leaky_re_lu_3 (LeakyReLU)    (None, 300)               0         
_________________________________________________________________
dropout_1 (Dropout)          (None, 300)               0         
_________________________________________________________________
dense_2 (Dense)              (None, 21)                6321      
=================================================================
Total params: 2,577,117
Trainable params: 2,577,117
Non-trainable params: 0
_________________________________________________________________
Train on 6800 samples, validate on 1700 samples
Epoch 1/50
6800/6800 [==============================] - 25s 4ms/step - loss: 2.4664 - acc: 0.2400 - val_loss: 2.1517 - val_acc: 0.3506
Epoch 2/50
…
6800/6800 [==============================] - 25s 4ms/step - loss: 0.0158 - acc: 0.9968 - val_loss: 0.6311 - val_acc: 0.9306
Epoch 49/50
6800/6800 [==============================] - 25s 4ms/step - loss: 0.0099 - acc: 0.9975 - val_loss: 0.6068 - val_acc: 0.9312
Epoch 50/50
6800/6800 [==============================] - 25s 4ms/step - loss: 0.0160 - acc: 0.9969 - val_loss: 0.6062 - val_acc: 0.9312
_________________________________________________________________
Layer (type)                 Output Shape              Param #   
=================================================================
conv2d_1 (Conv2D)            (None, 20, 50, 64)        640       
_________________________________________________________________
leaky_re_lu_1 (LeakyReLU)    (None, 20, 50, 64)        0         
_________________________________________________________________
conv2d_2 (Conv2D)            (None, 20, 50, 64)        36928     
_________________________________________________________________
leaky_re_lu_2 (LeakyReLU)    (None, 20, 50, 64)        0         
_________________________________________________________________
max_pooling2d_1 (MaxPooling2 (None, 10, 25, 64)        0         
_________________________________________________________________
conv2d_3 (Conv2D)            (None, 10, 25, 128)       73856     
_________________________________________________________________
leaky_re_lu_3 (LeakyReLU)    (None, 10, 25, 128)       0         
_________________________________________________________________
max_pooling2d_2 (MaxPooling2 (None, 5, 13, 128)        0         
_________________________________________________________________
flatten_1 (Flatten)          (None, 8320)              0         
_________________________________________________________________
dense_1 (Dense)              (None, 300)               2496300   
_________________________________________________________________
leaky_re_lu_4 (LeakyReLU)    (None, 300)               0         
_________________________________________________________________
dropout_1 (Dropout)          (None, 300)               0         
_________________________________________________________________
dense_2 (Dense)              (None, 21)                6321      
=================================================================
Total params: 2,614,045
Trainable params: 2,614,045
Non-trainable params: 0
_________________________________________________________________
Train on 6800 samples, validate on 1700 samples
Epoch 1/50
6800/6800 [==============================] - 53s 8ms/step - loss: 2.5157 - acc: 0.2174 - val_loss: 2.1854 - val_acc: 0.3347
Epoch 2/50
…
6800/6800 [==============================] - 53s 8ms/step - loss: 0.0085 - acc: 0.9971 - val_loss: 0.7481 - val_acc: 0.9271
Epoch 49/50
6800/6800 [==============================] - 53s 8ms/step - loss: 0.0062 - acc: 0.9979 - val_loss: 0.7595 - val_acc: 0.9271
Epoch 50/50
6800/6800 [==============================] - 53s 8ms/step - loss: 0.0065 - acc: 0.9974 - val_loss: 0.8340 - val_acc: 0.9224
_________________________________________________________________
Layer (type)                 Output Shape              Param #   
=================================================================
conv2d_1 (Conv2D)            (None, 20, 50, 64)        640       
_________________________________________________________________
leaky_re_lu_1 (LeakyReLU)    (None, 20, 50, 64)        0         
_________________________________________________________________
max_pooling2d_1 (MaxPooling2 (None, 10, 25, 64)        0         
_________________________________________________________________
conv2d_2 (Conv2D)            (None, 10, 25, 128)       73856     
_________________________________________________________________
leaky_re_lu_2 (LeakyReLU)    (None, 10, 25, 128)       0         
_________________________________________________________________
conv2d_3 (Conv2D)            (None, 10, 25, 128)       147584    
_________________________________________________________________
leaky_re_lu_3 (LeakyReLU)    (None, 10, 25, 128)       0         
_________________________________________________________________
max_pooling2d_2 (MaxPooling2 (None, 5, 13, 128)        0         
_________________________________________________________________
flatten_1 (Flatten)          (None, 8320)              0         
_________________________________________________________________
dense_1 (Dense)              (None, 300)               2496300   
_________________________________________________________________
leaky_re_lu_4 (LeakyReLU)    (None, 300)               0         
_________________________________________________________________
dropout_1 (Dropout)          (None, 300)               0         
_________________________________________________________________
dense_2 (Dense)              (None, 21)                6321      
=================================================================
Total params: 2,724,701
Trainable params: 2,724,701
Non-trainable params: 0
_________________________________________________________________
Train on 6800 samples, validate on 1700 samples
Epoch 1/50
6800/6800 [==============================] - 44s 7ms/step - loss: 2.4843 - acc: 0.2219 - val_loss: 2.1519 - val_acc: 0.3271
Epoch 2/50
…
6800/6800 [==============================] - 44s 6ms/step - loss: 0.0879 - acc: 0.9815 - val_loss: 0.7854 - val_acc: 0.9259
Epoch 49/50
6800/6800 [==============================] - 44s 6ms/step - loss: 0.0336 - acc: 0.9910 - val_loss: 0.7575 - val_acc: 0.9241
Epoch 50/50
6800/6800 [==============================] - 44s 6ms/step - loss: 0.0536 - acc: 0.9909 - val_loss: 0.7600 - val_acc: 0.9282
_________________________________________________________________
Layer (type)                 Output Shape              Param #   
=================================================================
conv2d_1 (Conv2D)            (None, 20, 50, 64)        640       
_________________________________________________________________
leaky_re_lu_1 (LeakyReLU)    (None, 20, 50, 64)        0         
_________________________________________________________________
conv2d_2 (Conv2D)            (None, 20, 50, 64)        36928     
_________________________________________________________________
leaky_re_lu_2 (LeakyReLU)    (None, 20, 50, 64)        0         
_________________________________________________________________
max_pooling2d_1 (MaxPooling2 (None, 10, 25, 64)        0         
_________________________________________________________________
conv2d_3 (Conv2D)            (None, 10, 25, 128)       73856     
_________________________________________________________________
leaky_re_lu_3 (LeakyReLU)    (None, 10, 25, 128)       0         
_________________________________________________________________
conv2d_4 (Conv2D)            (None, 10, 25, 128)       147584    
_________________________________________________________________
leaky_re_lu_4 (LeakyReLU)    (None, 10, 25, 128)       0         
_________________________________________________________________
max_pooling2d_2 (MaxPooling2 (None, 5, 13, 128)        0         
_________________________________________________________________
flatten_1 (Flatten)          (None, 8320)              0         
_________________________________________________________________
dense_1 (Dense)              (None, 300)               2496300   
_________________________________________________________________
leaky_re_lu_5 (LeakyReLU)    (None, 300)               0         
_________________________________________________________________
dropout_1 (Dropout)          (None, 300)               0         
_________________________________________________________________
dense_2 (Dense)              (None, 21)                6321      
=================================================================
Total params: 2,761,629
Trainable params: 2,761,629
Non-trainable params: 0
_________________________________________________________________
Train on 6800 samples, validate on 1700 samples
Epoch 1/50
6800/6800 [==============================] - 73s 11ms/step - loss: 2.4858 - acc: 0.2215 - val_loss: 2.1693 - val_acc: 0.3365
Epoch 2/50
…
6800/6800 [==============================] - 72s 11ms/step - loss: 0.0079 - acc: 0.9979 - val_loss: 0.7141 - val_acc: 0.9288
Epoch 49/50
6800/6800 [==============================] - 72s 11ms/step - loss: 0.0074 - acc: 0.9981 - val_loss: 0.6505 - val_acc: 0.9265
Epoch 50/50
6800/6800 [==============================] - 72s 11ms/step - loss: 0.0154 - acc: 0.9968 - val_loss: 0.6956 - val_acc: 0.9247
_________________________________________________________________
Layer (type)                 Output Shape              Param #   
=================================================================
conv2d_1 (Conv2D)            (None, 20, 50, 64)        640       
_________________________________________________________________
leaky_re_lu_1 (LeakyReLU)    (None, 20, 50, 64)        0         
_________________________________________________________________
conv2d_2 (Conv2D)            (None, 20, 50, 64)        36928     
_________________________________________________________________
leaky_re_lu_2 (LeakyReLU)    (None, 20, 50, 64)        0         
_________________________________________________________________
conv2d_3 (Conv2D)            (None, 20, 50, 64)        36928     
_________________________________________________________________
leaky_re_lu_3 (LeakyReLU)    (None, 20, 50, 64)        0         
_________________________________________________________________
max_pooling2d_1 (MaxPooling2 (None, 10, 25, 64)        0         
_________________________________________________________________
conv2d_4 (Conv2D)            (None, 10, 25, 128)       73856     
_________________________________________________________________
leaky_re_lu_4 (LeakyReLU)    (None, 10, 25, 128)       0         
_________________________________________________________________
conv2d_5 (Conv2D)            (None, 10, 25, 128)       147584    
_________________________________________________________________
leaky_re_lu_5 (LeakyReLU)    (None, 10, 25, 128)       0         
_________________________________________________________________
max_pooling2d_2 (MaxPooling2 (None, 5, 13, 128)        0         
_________________________________________________________________
flatten_1 (Flatten)          (None, 8320)              0         
_________________________________________________________________
dense_1 (Dense)              (None, 300)               2496300   
_________________________________________________________________
leaky_re_lu_6 (LeakyReLU)    (None, 300)               0         
_________________________________________________________________
dropout_1 (Dropout)          (None, 300)               0         
_________________________________________________________________
dense_2 (Dense)              (None, 21)                6321      
=================================================================
Total params: 2,798,557
Trainable params: 2,798,557
Non-trainable params: 0
_________________________________________________________________
Train on 6800 samples, validate on 1700 samples
Epoch 1/50
6800/6800 [==============================] - 100s 15ms/step - loss: 2.4639 - acc: 0.2335 - val_loss: 2.1195 - val_acc: 0.3582
Epoch 2/50
…
6800/6800 [==============================] - 103s 15ms/step - loss: 0.0144 - acc: 0.9957 - val_loss: 0.7121 - val_acc: 0.9276
Epoch 49/50
6800/6800 [==============================] - 100s 15ms/step - loss: 0.0215 - acc: 0.9935 - val_loss: 0.6884 - val_acc: 0.9300
Epoch 50/50
6800/6800 [==============================] - 100s 15ms/step - loss: 0.0212 - acc: 0.9924 - val_loss: 0.6875 - val_acc: 0.9306
_________________________________________________________________
Layer (type)                 Output Shape              Param #   
=================================================================
conv2d_1 (Conv2D)            (None, 20, 50, 64)        640       
_________________________________________________________________
leaky_re_lu_1 (LeakyReLU)    (None, 20, 50, 64)        0         
_________________________________________________________________
conv2d_2 (Conv2D)            (None, 20, 50, 64)        36928     
_________________________________________________________________
leaky_re_lu_2 (LeakyReLU)    (None, 20, 50, 64)        0         
_________________________________________________________________
max_pooling2d_1 (MaxPooling2 (None, 10, 25, 64)        0         
_________________________________________________________________
conv2d_3 (Conv2D)            (None, 10, 25, 128)       73856     
_________________________________________________________________
leaky_re_lu_3 (LeakyReLU)    (None, 10, 25, 128)       0         
_________________________________________________________________
conv2d_4 (Conv2D)            (None, 10, 25, 128)       147584    
_________________________________________________________________
leaky_re_lu_4 (LeakyReLU)    (None, 10, 25, 128)       0         
_________________________________________________________________
conv2d_5 (Conv2D)            (None, 10, 25, 128)       147584    
_________________________________________________________________
leaky_re_lu_5 (LeakyReLU)    (None, 10, 25, 128)       0         
_________________________________________________________________
max_pooling2d_2 (MaxPooling2 (None, 5, 13, 128)        0         
_________________________________________________________________
flatten_1 (Flatten)          (None, 8320)              0         
_________________________________________________________________
dense_1 (Dense)              (None, 300)               2496300   
_________________________________________________________________
leaky_re_lu_6 (LeakyReLU)    (None, 300)               0         
_________________________________________________________________
dropout_1 (Dropout)          (None, 300)               0         
_________________________________________________________________
dense_2 (Dense)              (None, 21)                6321      
=================================================================
Total params: 2,909,213
Trainable params: 2,909,213
Non-trainable params: 0
_________________________________________________________________
Train on 6800 samples, validate on 1700 samples
Epoch 1/50
6800/6800 [==============================] - 91s 13ms/step - loss: 2.4049 - acc: 0.2437 - val_loss: 2.0866 - val_acc: 0.3124
Epoch 2/50
…
