Batch size: 128

_________________________________________________________________
Layer (type)                 Output Shape              Param #   
=================================================================
conv2d_1 (Conv2D)            (None, 20, 50, 64)        640       
_________________________________________________________________
leaky_re_lu_1 (LeakyReLU)    (None, 20, 50, 64)        0         
_________________________________________________________________
conv2d_2 (Conv2D)            (None, 20, 50, 64)        36928     
_________________________________________________________________
leaky_re_lu_2 (LeakyReLU)    (None, 20, 50, 64)        0         
_________________________________________________________________
max_pooling2d_1 (MaxPooling2 (None, 10, 25, 64)        0         
_________________________________________________________________
conv2d_3 (Conv2D)            (None, 10, 25, 128)       73856     
_________________________________________________________________
leaky_re_lu_3 (LeakyReLU)    (None, 10, 25, 128)       0         
_________________________________________________________________
max_pooling2d_2 (MaxPooling2 (None, 5, 13, 128)        0         
_________________________________________________________________
flatten_1 (Flatten)          (None, 8320)              0         
_________________________________________________________________
dense_1 (Dense)              (None, 300)               2496300   
_________________________________________________________________
leaky_re_lu_4 (LeakyReLU)    (None, 300)               0         
_________________________________________________________________
dropout_1 (Dropout)          (None, 300)               0         
_________________________________________________________________
dense_2 (Dense)              (None, 21)                6321      
=================================================================
Total params: 2,614,045
Trainable params: 2,614,045
Non-trainable params: 0
_________________________________________________________________
Train on 6800 samples, validate on 1700 samples
Epoch 1/50
6800/6800 [==============================] - 65s 10ms/step - loss: 2.4710 - acc: 0.2332 - val_loss: 2.1375 - val_acc: 0.3412
Epoch 2/50
…
