Batch size: 64

Layer (type)                 Output Shape              Param #   
=================================================================
conv2d_106 (Conv2D)          (None, 20, 50, 64)        640       
_________________________________________________________________
leaky_re_lu_141 (LeakyReLU)  (None, 20, 50, 64)        0         
_________________________________________________________________
conv2d_107 (Conv2D)          (None, 20, 50, 64)        36928     
_________________________________________________________________
leaky_re_lu_142 (LeakyReLU)  (None, 20, 50, 64)        0         
_________________________________________________________________
max_pooling2d_71 (MaxPooling (None, 10, 25, 64)        0         
_________________________________________________________________
conv2d_108 (Conv2D)          (None, 10, 25, 128)       73856     
_________________________________________________________________
leaky_re_lu_143 (LeakyReLU)  (None, 10, 25, 128)       0         
_________________________________________________________________
max_pooling2d_72 (MaxPooling (None, 5, 13, 128)        0         
_________________________________________________________________
flatten_46 (Flatten)         (None, 8320)              0         
_________________________________________________________________
dense_91 (Dense)             (None, 300)               2496300   
_________________________________________________________________
leaky_re_lu_144 (LeakyReLU)  (None, 300)               0         
_________________________________________________________________
dropout_36 (Dropout)         (None, 300)               0         
_________________________________________________________________
dense_92 (Dense)             (None, 21)                6321      
=================================================================
Total params: 2,614,045
Trainable params: 2,614,045
Non-trainable params: 0
_________________________________________________________________
Train on 6800 samples, validate on 1700 samples
Epoch 1/20
6800/6800 [==============================] - 63s 9ms/step - loss: 2.3511 - acc: 0.2660 - val_loss: 2.0053 - val_acc: 0.3765
Epoch 2/20
…
